modelwithBatch.pth (torch, 409635 bytes, 4 tensors)

fc1.weight f4 [128, 784]
000000 41 86 d2 3b 77 1c a0 3b c1 7b f4 3c b7 29 c5 bb
       0.0064246957 0.004886206 0.029844167 -0.0060169357
000010 42 78 0e bd bc f2 f4 3c 98 a0 76 3c 81 3e d9 3c
       -0.034782656 0.029900901 0.015052937 0.026519062
000020 01 e6 65 bc ee 90 51 bc 00 78 a7 bc e5 f7 9f bb
       -0.014031888 -0.012790902 -0.020442963 -0.0048818463
000030 cd 6d 12 3b 16 3f a9 bc af 2e 0a 3d 4c 17 92 ba
       0.0022343278 -0.020659965 0.033735927 -0.0011145859
000040 65 43 50 bc 98 be ef bc 91 3b f9 bc aa 28 5b bc
       -0.012711381 -0.029265687 -0.030423911 -0.013376394
000050 b0 6a 10 bd 8c 82 97 3c b8 58 7c 3c 7c 7e 82 bc
       -0.035257995 0.018494867 0.015402012 -0.015929453
000060 c5 ce 8b 3c ca 59 70 3b e5 6e c7 bc 4f df 06 bd
       0.017066369 0.0036674612 -0.02434487 -0.032927807
000070 6c 6f f0 bc 0c ea d8 3c ca 35 80 bb 8e 98 ef bc
       -0.029350005 0.02647879 -0.003912662 -0.029247548
000080 69 b8 a5 3c 7a 52 28 bc 95 e1 9c 3c 79 66 b3 bc
       0.020229535 -0.01027357 0.019150535 -0.021899449
000090 26 ed 7b 3c 5d 5a b2 3c df 03 37 3c 1c 05 ec bc
       0.015376365 0.021771604 0.011170357 -0.02881103
0000a0 00 90 34 bc 79 08 cb bc eb 98 ee 3b d7 1a 29 3c
       -0.01102066 -0.024784314 0.007281413 0.0103213405
0000b0 76 6f d3 3b d8 49 80 3c 77 8d 8a 3c 1e b7 36 3b
       0.006452496 0.015660211 0.016913159 0.0027880142
0000c0 18 87 98 3c 8e f9 8d bc 42 ab fe 3c 97 d0 68 3c
       0.018619105 -0.017330911 0.031087521 0.014209888
0000d0 00 0d 99 ba 8a 0e 1c bc 93 e4 02 bd 6c d2 f4 bc
       -0.0011676848 -0.009524951 -0.031956267 -0.029885493
0000e0 0e c6 4b 3c 0a db 62 3c c5 00 a4 3c 21 c2 8e ba
       0.012437357 0.013846168 0.020019898 -0.0010891595
0000f0 01 5a 21 3c c7 fe f7 bc 34 25 f2 bc 8a 73 f2 3c
       0.009848119 -0.030272854 -0.029558755 0.029596109
000100 6e ad 8b 3a 00 f1 b2 3c 25 9e eb bc 1a db c1 bc
       0.0010656544 0.021843433 -0.028761933 -0.023664046
000110 e0 94 65 3c b3 be 95 bc 7f 17 0b bd 31 f7 0f bc
       0.014012545 -0.018279409 -0.033957954 -0.008786962
000120 06 db de 3c be 0a bb 3c 2b 3c e1 3c 61 56 da bc
       0.027204048 0.02283227 0.02749451 -0.026652517
000130 0d a0 62 ba f5 33 95 3c e2 4c 13 bb b8 ea a0 3c
       -0.0008645065 0.018213252 -0.0022476246 0.019643173
000140 d4 ac 99 bc 83 08 a2 bc 61 02 b2 bc 37 a0 a2 3b
       -0.018759169 -0.01977945 -0.02172965 0.0049629468
000150 5c 74 2a bb 05 52 20 bc 5f ab fa bc 38 aa 6e bc
       -0.0026009297 -0.00978518 -0.030599294 -0.0145669505
000160 6d 5b d2 bc de ee e5 3c 37 fd c2 bc a5 de e9 3b
       -0.02567836 0.028068002 -0.023802383 0.007137137
000170 27 3f c5 bb 0b de ba 3b c9 37 2f 3c e4 c9 a7 3c
       -0.0060194912 0.005702739 0.010694453 0.020482011
000180 a2 a4 65 3b 0d 75 3e bb d2 22 d7 bc d8 30 01 bc
       0.0035040756 -0.0029061467 -0.02626172 -0.00788518
000190 28 a1 bb bc 8f e4 ab 3c 2c 2f 82 bc 43 f9 6f bb
       -0.022903994 0.020983009 -0.015891634 -0.0036617077
0001a0 0b ba e2 3c 97 f9 05 bd 5d 68 91 bc 59 87 0a 3d
       0.027676603 -0.03270873 -0.01774996 0.033820484
0001b0 5b 4f 6c bc 77 8e 73 bc 4a 5d 58 3c ae 47 da 3c
       -0.014423217 -0.014865509 0.013205836 0.026645508
0001c0 17 e4 cf bc 5a 2b a1 3c 94 64 e2 3c 22 d8 16 bc
       -0.025377316 0.019673992 0.02763585 -0.0092068035
0001d0 c9 98 8f bc 98 48 bd 3b 1b b3 0d bc 43 ed 63 3b
       -0.017528908 0.005776476 -0.008648659 0.003477887
0001e0 f1 32 6b 3c 92 8c 23 bc 8a 17 fb 3b 4c 54 cd bb
       0.014355407 -0.009982245 0.007662718 -0.0062661525
0001f0 35 a2 fb bc d0 ca a0 bc 72 f2 ee 3b 68 b8 34 bc
       -0.030716995 -0.019627959 0.0072920853 -0.011030294
000200 02 7f 0b 3a 84 c8 a7 bc fb 43 d8 bc 60 f7 9d 3c
       0.0005321355 -0.020481355 -0.026399603 0.019282997
000210 16 7f db bb 30 60 de 3c 00 f6 58 3c 62 ad 59 bb
       -0.0066984994 0.027145475 0.013242245 -0.0033214916
000220 5d 61 a5 3c f3 ce 47 3c 6e fe 1d ba 97 f0 d0 b9
       0.020188028 0.012195337 -0.00060269877 -0.00039852105
000230 bc bf de 3c ae 42 1e 3c dc fc b5 bb 65 b4 21 bc
       0.027191035 0.009659452 -0.005553825 -0.00986967
000240 bb 79 f8 3c 28 1a e7 bc 6e 65 85 3c f6 5e 98 bc
       0.030331483 -0.028210714 0.016283717 -0.018599968
000250 24 67 0e 3d 60 6e be bc 3b c6 c4 ba 7a c8 fb 3c
       0.03476633 -0.02324599 -0.001501269 0.030735243
000260 e4 d3 a7 bc c0 04 85 bc 28 1d 4d bb 0b 72 19 3c
       -0.02048678 -0.016237617 -0.0031297896 0.009365569
000270 fb 28 ba bc c2 43 69 bc c9 6b 46 3c ba 0c ae 3c
       -0.02272462 -0.014237346 0.012110659 0.021246303
000280 12 ac cc 3c 97 67 1c bd fc 54 91 39 4a d3 eb 3c
       0.024984393 -0.03818473 0.00027719873 0.028787274
000290 90 7c c9 bc 98 8d b6 3c 74 93 1c 3c f5 41 ea bc
       -0.024595529 0.022284314 0.00955664 -0.028595904
0002a0 43 d4 04 bd 43 97 ed bc 64 9d 21 3c f9 fc a6 bc
       -0.03242899 -0.029002791 0.009864185 -0.020384299
0002b0 9b a2 c3 bc 2a 35 e7 bc 8c f1 f0 3c fe 64 83 bc
       -0.023881247 -0.028223593 0.029412054 -0.016039368
0002c0 88 b0 b6 ba 04 9f 78 3c ac 7b f4 bc 0e 52 ac bc
       -0.0013938108 0.015174631 -0.029844128 -0.02103522
0002d0 14 4e 54 3c 51 ed aa 3c 0a e4 88 3c b5 6f 6b bc
       0.012958068 0.020865114 0.0167103 -0.014369895
0002e0 88 02 32 3c 80 46 32 bc e0 46 00 3d c2 02 c4 bc
       0.010864861 -0.010881066 0.03131759 -0.023927096
0002f0 bc 4f df bc bf 29 a7 bc f6 3f fb bc 7f 65 ac 3c
       -0.0272597 -0.020405648 -0.030670147 0.02104449
000300 7f ef 93 bc 11 bd 80 3c cc 41 e6 bc 7c 48 a4 3c
       -0.018058537 0.015715154 -0.028107546 0.020054094
000310 bc c4 fc 3c 58 03 0e 3c 55 17 aa 3c 2e 41 6b 3c
       0.030855529 0.008667789 0.020763079 0.014358802
000320 a5 df b5 3c 2b f7 15 3d 38 89 86 bc 01 08 9e 3c
       0.022201369 0.03661267 -0.016422853 0.019290926
000330 dd 2d 04 3d ce 57 30 3d 44 f9 ad bc fe 20 ff bb
       0.0322703 0.043052487 -0.021237023 -0.0077859154
000340 41 09 10 bc d6 64 d2 3c 29 b6 4c 3d 2c ce 9c 3c
       -0.008791269 0.025682848 0.04997841 0.01914128
000350 ac 76 df bb b4 10 43 3d 1a c4 c0 3c 81 4a a7 3b
       -0.0068195667 0.04762335 0.023531009 0.005105317
000360 a2 b8 17 bc 9d b3 d9 3b 3a ab 0b bd df 02 04 bd
       -0.0092603285 0.006643726 -0.03409884 -0.0322293
000370 ce 94 25 3c 89 70 93 3c 90 f9 1d 3c 71 8e cf 3c
       0.010106279 0.017997997 0.00964202 0.025336476
000380 b1 14 b3 bc 41 13 8f bc 73 00 c0 3b 6c 5c a2 3c
       -0.021860452 -0.017465236 0.0058594286 0.01981946
000390 bf b5 ec bb 96 1a 28 bc 92 c5 31 3c 78 0d 79 bc
       -0.0072238143 -0.010260245 0.010850327 -0.015200965
0003a0 af 53 aa 3c fc 05 2d 39 e4 00 fd bb eb b0 0b 3d
       0.020791857 0.00016500795 -0.0077210534 0.03410427
0003b0 06 1d 8b 3c ab ab 1c 3d 82 16 30 3c 97 ab 82 3d
       0.016981613 0.038249653 0.010747554 0.063803844
0003c0 42 e6 3b 3c a5 c9 1c 3c bb aa 51 3d 15 f0 20 3d
       0.011468472 0.00956956 0.051188212 0.03929146
0003d0 f7 ed f9 3c 5a cb b4 3b 6a 9e e4 bc f2 66 d4 bc
       0.030508978 0.0055174055 -0.027907569 -0.025927994
0003e0 41 e0 7e 3c 44 b9 cc bc 9b 7f 35 ba da 1e ea 3b
       0.015556396 -0.024990685 -0.0006923617 0.007144791
0003f0 1c 3b ad bb b5 ed ea bc 35 97 0e 3d b5 01 e0 3c
       -0.0052865874 -0.0286778 0.03481217 0.027344564

fc1.bias f4 [128]
000000 61 5d 1d 3c 5c 6a a0 bc 93 65 00 bd 37 42 aa bc
       0.009604783 -0.019581966 -0.03134687 -0.020783527
000010 1e 78 dd bc 7f 64 07 bd e3 fe b3 3c 45 0a 52 bc
       -0.027034815 -0.033054825 0.021972125 -0.012819831
000020 e5 0e cf 3c 4a 3b 8d 3c 25 7a 51 3c 58 2f 2d 3a
       0.025275657 0.017240185 0.012785469 0.0006606481
000030 25 ca de ba e8 36 34 3b 57 54 fb 3c 3e e5 2d 3c
       -0.00169975 0.0027498547 0.030679865 0.010613738
000040 84 eb 60 bb 02 49 80 bc 28 1e d9 3c 78 dd b5 ba
       -0.0034320066 -0.015659813 0.026503637 -0.0013875207
000050 41 d9 c5 bc b8 d8 8f 3c 72 70 07 3d ec 27 2d bc
       -0.024151446 0.017559394 0.03306622 -0.0105686
000060 fa de 1e bc 24 b6 c5 3c 4a ba 98 bc fe a5 a7 3c
       -0.009696716 0.024134703 -0.018643517 0.020464893
000070 df 94 58 3b df 17 14 3d 3d 94 9b 39 75 1b 82 bc
       0.0033047718 0.036155578 0.0002967435 -0.015882233
000080 17 2c ab 3c 25 d9 8d bc 54 d5 22 3d 55 fb dc 3b
       0.020895047 -0.017315457 0.039754227 0.0067438283
000090 05 4a 18 3d cf 0a 91 3c 8b 48 1f bd 68 50 c5 3c
       0.037179966 0.01770535 -0.03888754 0.024086192
0000a0 87 0d 78 3b b7 91 0f bc b9 f2 fe bb e6 5d 09 3d
       0.003784986 -0.0087627685 -0.0077803996 0.033536814
0000b0 89 c8 ce bc 05 36 37 bc 6d 29 4a bb 3f cb b2 bb
       -0.025242107 -0.011182313 -0.0030847446 -0.0054563577
0000c0 89 48 c8 3b c9 51 3e 3d 05 37 73 3b 18 3a f8 bc
       0.0061121625 0.046464715 0.0037111652 -0.030301139
0000d0 e7 c3 f1 ba ab db e4 bc d1 d3 c5 bc d0 bc 1a 3d
       -0.0018445224 -0.027936777 -0.024148853 0.037777722
0000e0 e4 9f 08 bd 9a f3 00 bd 90 e0 ae bb 4d 2d f5 3c
       -0.03335561 -0.031482317 -0.0053368285 0.029928828
0000f0 82 39 02 3d 62 28 70 3c 0e 9b 05 3d 05 5d 96 bb
       0.031793125 0.0146580655 0.032618575 -0.0045887255
000100 eb 45 c5 3a 1c 6d 80 bc 6a c0 6f bc 08 58 bb 3a
       0.0015050744 -0.015677027 -0.014633277 0.0014293203
000110 84 31 09 3d 42 53 3b 3c 19 6e 00 3c 60 af 1c 3c
       0.033494487 0.011433424 0.007838749 0.009563297
000120 c9 a3 94 bc 24 59 e2 bc 34 36 73 bc f9 21 d3 3c
       -0.018144505 -0.027630396 -0.014844466 0.025773035
000130 8f 56 03 3c 47 d0 9b 3b ea 41 ac 3c 57 56 15 b9
       0.008016243 0.004755053 0.021027524 -0.00014241911
000140 af 68 d6 bc ef 00 5d 3c 60 24 20 3d 82 57 1e bd
       -0.026172964 0.013488992 0.03909719 -0.038657673
000150 d2 7f ef 3c 4e b5 af bb 53 66 13 bd 29 ec bf bc
       0.029235754 -0.0053621894 -0.035986256 -0.02342804
000160 82 ce 39 3d 96 81 af bc 5f d0 cf ba 96 f2 97 bc
       0.045362957 -0.021424096 -0.0015854946 -0.018548291
000170 83 6a b8 3c 7f 83 a9 bc 9b 8d 28 3c b6 76 ea 3c
       0.022511726 -0.020692585 0.010287668 0.028621059
000180 d9 f1 ab bc db 9c 3e bb 47 3b 8a bc 02 93 05 bd
       -0.020989345 -0.0029085192 -0.016873969 -0.0326109
000190 80 01 6e 3b ac ea 31 39 85 0a a4 bc f7 ff 15 bb
       0.0036316812 0.00016967457 -0.020024547 -0.0022888163
0001a0 42 27 1a bc 19 a0 b2 3c de 81 a2 3c e6 b1 ed 3c
       -0.009408774 0.021804856 0.019837316 0.029015493
0001b0 9a 0a 91 bc e2 ba 1a 3d 9f 4b 6b bc 1b e5 6b 3c
       -0.01770525 0.03777588 -0.014361291 0.014397885
0001c0 ad 5c e5 bb 89 81 1d 3c c2 3c cd 3c 07 f3 c2 3c
       -0.006999573 0.009613403 0.025053386 0.023797525
0001d0 a4 a1 52 bb 8d ba 8e 3b 43 5b 8c bc 79 2f 0c 3d
       -0.0032139802 0.0043557347 -0.01713336 0.03422496
0001e0 6b 84 c5 bb 98 a7 8a bc 9b 87 f7 bc f9 6f 97 bc
       -0.0060277483 -0.016925618 -0.030216029 -0.01848601
0001f0 62 97 eb 3c ef aa c8 bc 50 01 3b 3c 9c f8 f4 3c
       0.028758708 -0.02449557 0.011413887 0.029903702

fc2.weight f4 [10, 128]
000000 06 20 16 3e 36 a9 ab bd da 65 87 3e 10 99 1e be
       0.14660653 -0.08381884 0.26444894 -0.15488076
000010 4e 88 06 be 6b a5 2e 3d 20 c5 b5 3d 2b d6 94 3d
       -0.13137934 0.042638224 0.08875489 0.07267412
000020 99 58 1f 3e c0 04 8b bd b4 9e 08 3d 76 9d 41 3e
       0.15561141 -0.06788015 0.033354476 0.18907723
000030 65 d7 63 be ba 8f 88 be cd df a8 3e 80 00 09 be
       -0.22250135 -0.26672155 0.32983246 -0.13379097
000040 09 2e 1e 3e e9 2a 12 be 76 6d cd bc e9 e9 e4 bd
       0.15447249 -0.14274181 -0.02507661 -0.11177427
000050 6b bd 89 3e 51 e2 61 be 0c 00 4b 3d 63 ef e8 bd
       0.26902327 -0.22058989 0.04956059 -0.113737844
000060 64 81 16 3e 53 c7 eb bd b2 75 17 3e ff 38 fe bd
       0.14697796 -0.115126275 0.14790991 -0.12413215
000070 8b be 17 3e e1 fc 87 be e9 67 84 be b4 5e 75 3e
       0.1481878 -0.2656012 -0.25860527 0.23961908
000080 33 43 a8 be a4 e4 16 be 2d 7c 73 bd 0e 43 bd bc
       -0.3286377 -0.14735657 -0.059444595 -0.023103263
000090 4d 67 6b be 05 5d c8 3c 81 8d 54 3e e5 67 76 3d
       -0.22988625 0.024458418 0.20757104 0.060157675
0000a0 7d 37 26 3e b1 5c 06 be c0 75 17 3e db 41 e2 3d
       0.16232105 -0.13121296 0.14791012 0.11047717
0000b0 8a 6e bd 3d ad a9 3b bc 11 ed 09 be f3 17 6d be
       0.09249599 -0.011454028 -0.1346934 -0.23153667
0000c0 be 82 81 3e 4b a5 4b be 5e c8 4c be 44 08 cd 3d
       0.2529506 -0.19887273 -0.19998309 0.10011342
0000d0 9b 94 27 3d 02 18 27 bd c5 f7 b0 bd 20 4c 4f be
       0.040913206 -0.04079438 -0.08641008 -0.20243883
0000e0 1a 3c 9c bc 97 c4 9e 3e 8f bb 9c bd f0 97 c9 3d
       -0.019071627 0.3100936 -0.076529615 0.09843433
0000f0 3f db 1a bd 0a e1 52 bd 3b 45 86 be 99 4c 0d 3e
       -0.037806746 -0.051484145 -0.26224694 0.13798751
000100 bc 90 19 3e 32 4d 84 3e 8a cc 4e bd b7 41 37 3e
       0.14996618 0.25840145 -0.050488032 0.17896162
000110 97 a1 8f be ce 19 5d be 70 d9 aa bd 9b 48 9a bd
       -0.2805297 -0.21591875 -0.08342254 -0.0753338
000120 c6 60 a4 bb dd 51 c4 3d 66 e8 84 be 0e da 4f 3e
       -0.005016419 0.09585927 -0.25958556 0.20298025
000130 75 dd 69 be 45 0f 29 3e 21 b9 49 bb 1f 98 3a be
       -0.22838385 0.16509731 -0.0030780511 -0.18222092
000140 41 03 11 3d c9 9e 9f bd 70 dc 2f bd 98 90 83 bc
       0.035403494 -0.07793958 -0.042934835 -0.016060159
000150 24 55 c1 3d bc 40 c1 3d 91 73 fc bd 1b 7d ce 3c
       0.094400674 0.09436175 -0.1232673 0.02520614
000160 1d 1f 11 be 0d 7b 43 be 2c a6 31 be c8 3e a6 bc
       -0.14172025 -0.19089909 -0.17348546 -0.020293608
000170 3d 7f db bb 0e cd 32 bd 3c 1f 1c be 12 5a 5b 3e
       -0.0066985176 -0.043652587 -0.1524629 0.21421078
000180 89 fc 99 bd 7d 26 28 be 17 8f 78 be 0c fd 12 bc
       -0.075188704 -0.16420932 -0.24273334 -0.008971464
000190 aa a0 32 3d ca d5 87 3e 6f 04 ba bd cd 23 7e 3e
       0.043610252 0.26530296 -0.09082877 0.24818344
0001a0 bc 7b 1a 3e 68 ef 20 3e 17 88 db 3d 1a 7e 51 bd
       0.15086263 0.15716326 0.107193165 -0.05114565
0001b0 87 35 c5 3d 56 82 0e be de ba 2b 3d 97 d2 3f 3e
       0.0962935 -0.13916907 0.041926257 0.18732677
0001c0 22 5b af 3b 05 e4 8d be 56 84 8b be d9 d3 08 3d
       0.00535144 -0.27713028 -0.27249402 0.03340516
0001d0 ab ad 33 3c be 95 1e 3d d7 c5 17 3e 7b b5 4f bd
       0.010966699 0.038717024 0.14821564 -0.050710183
0001e0 3e ea 9c bc ac 92 18 3e 8d 3b 9d bd 9a 12 fa 3d
       -0.019154664 0.14899701 -0.07677374 0.12210579
0001f0 d5 1e ae be 90 f4 93 bd 0e 27 e1 bc 4d 13 74 bc
       -0.34007898 -0.07224381 -0.027484443 -0.01489718
000200 39 a0 4a be 29 23 24 be f1 05 82 be 62 71 b2 3d
       -0.19787683 -0.16029038 -0.25395158 0.08713032
000210 79 bd 0a 3d af 61 77 be 80 d6 08 3b e4 61 d8 3d
       0.0338721 -0.24158357 0.0020879805 0.10565546
000220 21 11 9e bb 8e cb ec 3c 2b d7 c8 bd f7 e3 d3 3d
       -0.0048238193 0.028905656 -0.09806665 0.10346215
000230 ef 67 be 3c e7 01 f0 3c e0 53 05 3e 89 11 6d 3e
       0.023242919 0.029297782 0.13020277 0.2315122
000240 64 43 06 3b 54 83 89 3e 39 b4 87 bd e9 27 35 3e
       0.0020486945 0.26858008 -0.066261716 0.17691006
000250 19 cf 20 bd 57 07 70 bd 37 f9 29 3e ef 5d 3f 3d
       -0.039260004 -0.05860075 0.16598974 0.04672044
000260 2c 89 d8 bd 9c 6c a4 3c 86 27 95 be 8b 39 3e be
       -0.105730385 0.02007132 -0.29131716 -0.18576638
000270 75 07 e3 3c 65 20 58 3e 2e 9a c7 3d 07 de 52 bd
       0.027713517 0.21106108 0.09746204 -0.051481273
000280 6b 42 9e 3e 03 43 1f bd 68 50 32 3e 72 74 81 be
       0.30910048 -0.038882267 0.17413485 -0.25284153
000290 ee 14 f4 3d 8d 08 f0 3d 2f 16 81 3b 28 db 2e bd
       0.119180545 0.11720381 0.003939412 -0.042689472
0002a0 29 ed 5a be 7a 71 65 3e a7 ce c6 bc 61 7f cf 3d
       -0.21379532 0.22406569 -0.024268461 0.101317175
0002b0 db 17 83 3d 98 a3 8e bc 33 ac 7f 3e 70 f1 d3 3d
       0.064010344 -0.017411992 0.24968033 0.10348785
0002c0 50 bc 36 be a0 2b 89 3e 3d a0 bc bd d7 06 6f 3d
       -0.17845273 0.26791096 -0.092102505 0.058356132
0002d0 5a 05 f3 bc 15 92 c1 3a 29 1c 8b be 2e ec 88 3e
       -0.029665638 0.0014768267 -0.27169922 0.2674269
0002e0 33 ac 01 be de c5 93 bd 2d 9c 43 3e 82 fc c4 bc
       -0.12663345 -0.072154745 0.19102545 -0.024046186
0002f0 6e b2 19 3d e2 71 25 3e 7b 55 96 3c c2 39 90 be
       0.03752368 0.16156724 0.018351307 -0.28169066
000300 35 30 1c be 50 2f 77 bd 4e d5 92 3d 2b 1c ab be
       -0.15252765 -0.060347855 0.07169591 -0.33419928
000310 0c 3c 41 3e c3 ff 04 3e 71 33 b9 bb 14 c1 b1 be
       0.18870562 0.1298819 -0.0056518842 -0.3471762
000320 21 7c 25 3e da b9 04 bc 08 75 97 3e 1a 61 16 3d
       0.16160633 -0.008100951 0.29581475 0.036713697
000330 1c 7e 9d bd c4 16 3d be ae 3c ae 3d 38 7d 08 3e
       -0.07690069 -0.18465716 0.085076675 0.13329017
000340 58 11 70 be 7d 0b ce bd d0 db cd 3d b2 34 7f be
       -0.23444116 -0.10060785 0.100516915 -0.24922445
000350 1a 84 48 bb 20 44 1e be 05 b4 80 bd e1 12 49 3e
       -0.0030596317 -0.15455675 -0.06284336 0.19636108
000360 63 2f 75 3e 7a 0f 91 3d 07 82 51 3c cf 29 51 3e
       0.23943858 0.0708303 0.012787349 0.20426105
000370 3c 31 c9 3d f0 53 0d 3e cc d7 2d 3e e2 50 48 be
       0.09823844 0.13801551 0.16976851 -0.19562104
000380 82 46 d1 3d 08 06 96 3e a1 a3 df 3d 93 74 71 3e
       0.102185264 0.29301476 0.109198816 0.23579626
000390 46 ab 00 be 5c 44 57 be a5 42 0c 3d 58 2d c1 3b
       -0.12565336 -0.21022171 0.034243245 0.005895298
0003a0 8a e5 58 be 13 a2 b6 3d b4 16 7c be a4 bb a1 bd
       -0.21181312 0.08917632 -0.24618036 -0.07897118
0003b0 41 75 20 3e be 73 19 3e 44 3a 27 3e c5 d9 8a be
       0.15669729 0.14985558 0.1633082 -0.2711927
0003c0 73 6e 6a be 4f ac 8e 3e 35 9d 04 3e 03 11 eb bd
       -0.22893696 0.27865836 0.12950595 -0.11477854
0003d0 42 97 2c 3d 35 1f 5d 3d b8 17 33 3d 3e 36 d4 3d
       0.04213644 0.05398484 0.04372379 0.103619084
0003e0 91 b8 e1 bd 36 07 1a be 0a 95 7c 3d c8 06 2b be
       -0.110215314 -0.15041813 0.061665572 -0.16701806
0003f0 33 55 c5 3d f2 8d 6d 3e f6 2f 87 bd a3 d3 07 3e
       0.09635391 0.23198679 -0.06600945 0.13264327

fc2.bias f4 [10]
000000 38 a8 84 bd 24 c7 83 bd 5a 07 96 bd 42 d2 72 3d
       -0.06477398 -0.064344674 -0.07325621 0.05928255
000010 d8 f7 e3 ba 28 61 80 bd 8b f2 4f 3d bd db b6 bc
       -0.0017392589 -0.06268531 0.050768416 -0.022321576
000020 92 52 71 bd 15 59 a6 bd
       -0.058916636 -0.0812246
